no-cat/PyTorch/cnn.pth (torch, 250839 bytes, 10 tensors)

conv1.weight f4 [6, 3, 5, 5]
0	0x3e06b876	0.13156304
1	0x3c2d9688	0.0105949715
2	0x3e0b0bbd	0.13578697
3	0x3e1365d5	0.14394315
4	0x3dac3571	0.08408631
5	0xbd39e3ca	-0.045383252
6	0x3cf97eb4	0.030455925
7	0x3d9754bc	0.07389209
8	0xbc734f28	-0.014850415
9	0xbd8b640c	-0.06806192
10	0x3db6c999	0.089251705
11	0x3ddb28f3	0.1070117
12	0xbd4c02c5	-0.04980733
13	0x3d03de20	0.032194257
14	0x3dd0e4dd	0.10199902
15	0x3d03b1d6	0.03215202
16	0xbcc42c57	-0.023946924
17	0xbda9afed	-0.08285508
18	0xbd0043b6	-0.031314574
19	0xbde22dba	-0.11043878
20	0xbc3d8e45	-0.011569564
21	0xbd3de529	-0.046361122
22	0x3d6fbb1d	0.058528055
23	0x3cd43097	0.025902076
24	0xbcad26e5	-0.02113671
25	0x3dce976e	0.10087477
26	0x3e2a4512	0.1662791
27	0x3e1ead7b	0.15495865
28	0x3e12b628	0.143273
29	0x3debb921	0.1150992
30	0x3d95251a	0.07282467
31	0xbd8f60ff	-0.070009224
32	0xbcb6b757	-0.02230422
33	0xbd4ac0e7	-0.049500372
34	0xbbd90c7c	-0.0066238027
35	0xbd9b6bad	-0.07588897
36	0xbdcb081a	-0.099136546
37	0xbd66d416	-0.056354605
38	0x3d812ab5	0.06306974
39	0xbcd12ba7	-0.02553351
40	0xbd96f974	-0.07371798
41	0xbddd5887	-0.10807901
42	0x3dbc9d04	0.09209636
43	0xbd32f62e	-0.043691806
44	0x3d85a770	0.06526077
45	0x3dd7dd45	0.10540251
46	0xbc0011c7	-0.007816738
47	0x3dbd71ee	0.09250246
48	0xbd9385ba	-0.07203241
49	0x3d7b9539	0.061421607
50	0x3e800d2a	0.25010043
51	0x3e5b44c3	0.2141295
52	0x3df16c79	0.11788268
53	0x3da7d426	0.08194761
54	0x3e2fde61	0.17174675
55	0x3cb3168d	0.021861339
56	0x3d5a4d9d	0.053296674
57	0x3e2d8063	0.16943507
58	0x3e085fdb	0.13317816
59	0x3e142a25	0.14469202
60	0xbc24ca0d	-0.010057938
61	0x3db8dea0	0.09026837
62	0x3d9d789f	0.07689022
63	0xbcd73fbb	-0.026275506
64	0x3cb343fd	0.021883005
65	0x3d902638	0.0703854
66	0x3e0be329	0.13660873
67	0x3d623d17	0.05523404
68	0x3dbcd4b4	0.092202574
69	0x3d166877	0.03672072
70	0x3e176698	0.1478523
71	0x3d735c3e	0.05941414
72	0x3dd9123a	0.105991796
73	0xbce543f0	-0.027986497
74	0x3d8c8916	0.068620846
75	0xbe3ab2b8	-0.18232238
76	0x3d040330	0.032229602
77	0x3db93581	0.09043408
78	0x3da09540	0.07840967
79	0x3dbabae8	0.09117681
80	0xbe41096d	-0.18851252
81	0xb62a2700	-2.5354675e-06
82	0x3ddc7361	0.10764194
83	0x3e73c0b6	0.23803982
84	0x3e0f5879	0.13998593
85	0xbdaf2200	-0.08551407
86	0xbde1b308	-0.110204756
87	0x3cdef4ef	0.027216403
88	0x3dd09cad	0.101861335
89	0x3d230f9f	0.03980982
90	0xbdc633e3	-0.09677865
91	0xbdd4e690	-0.10395539
92	0x3dd9ec31	0.10640753
93	0x3e47e4bd	0.1952085
94	0x3da07349	0.07834489
95	0xbd41e08f	-0.047333296
96	0xbe055816	-0.13021883
97	0xbd23d1f1	-0.039995138
98	0x3c54cdb2	0.012988495
99	0x3c25b0e1	0.010112972
100	0xbdf62756	-0.120192215
101	0xbe3f545b	-0.18684523
102	0x3c4c3c22	0.012465509
103	0x3db86a6a	0.09004672
104	0x3b904e9e	0.004403903
105	0xbe0a478e	-0.13503858
106	0xbe09b6ca	-0.13448635
107	0xbd15d662	-0.036581405
108	0x3e0d4ed4	0.13799602
109	0xbc88bd12	-0.016691718
110	0xbe9bb80f	-0.30413863
111	0xbe54274d	-0.20718117
112	0xbca5df27	-0.020248009
113	0x3e608a02	0.21927646
114	0x3c7f8645	0.015595977
115	0xbe580c07	-0.21098338
116	0xbe7e527c	-0.24836153
117	0x3c978f7a	0.018501032
118	0x3e361b1d	0.1778378
119	0x3d96a455	0.073555626
120	0xbdcbb725	-0.099470414
121	0xbe050e07	-0.12993632
122	0xbcda8694	-0.0266755
123	0x3e0dae99	0.13836135
124	0x3d0f6a25	0.035013337
125	0xbd71e9dc	-0.059060916
126	0xbb5a5b26	-0.003331849
127	0xbc9b6963	-0.01897115
128	0x3b29ca60	0.0025907978
129	0x3e187d6c	0.14891595
130	0xbe21d40f	-0.1580355
131	0xbe3c1336	-0.18366703
132	0x3d3629d3	0.04447348
133	0x3e08cbc3	0.13358979
134	0x3d8bed6b	0.06832393
135	0xbe0cab5d	-0.13737245
136	0xbe4323dd	-0.1905665
137	0x3d0f9d5e	0.035062186
138	0x3ea886e4	0.32915413
139	0x3e44904a	0.19195667
140	0xbe5cb915	-0.21554978
141	0xbd85808f	-0.06518661
142	0x3e04b146	0.1295825
143	0x3e71f78e	0.23629591
144	0x3d83e0e4	0.06439379
145	0xbe00843a	-0.1255044
146	0xbd9d26f5	-0.07673446
147	0x3e356a60	0.1771636
148	0x3e6caa6e	0.23111889
149	0x3d882337	0.06647342
150	0x3e1dd635	0.15413745
151	0x3dc94861	0.09828258
152	0x3e1aaeb2	0.15105703
153	0x3e4e63ad	0.20155211
154	0x3e539430	0.20661998
155	0x3d8c69dd	0.06856129
156	0x3e88485f	0.26617715
157	0x3e2e6852	0.17031983
158	0x3e5ce7d8	0.21572816
159	0x3e405c03	0.187851
160	0x3c880ac7	0.016606702
161	0x3dcd6aac	0.10030112
162	0x3e5cc51b	0.21559565
163	0x3da0dd31	0.07854689
164	0x3e19dc7e	0.15025517
165	0xbd9e905d	-0.07742379
166	0xbe2e5748	-0.17025483
167	0xbe36eb5a	-0.17863217
168	0xbe3538c4	-0.17697436
169	0xbda9a8df	-0.08284163
170	0xbdc9d5fd	-0.09855268
171	0xbda8f316	-0.0824949
172	0xbdbcee46	-0.092251346
173	0xbde79097	-0.11306875
174	0xbe436806	-0.1908265
175	0x3d3e4e64	0.046461478
176	0xbda2dd51	-0.07952369
177	0xbd853aa2	-0.06505324
178	0xbdea5c00	-0.11443329
179	0xbdeaae4c	-0.11459026
180	0xbd697985	-0.057000656
181	0x3d63171f	0.055441972
182	0xbbe45e70	-0.0069692656
183	0x3d5d5786	0.054038547
184	0xbdb37b99	-0.08763809
185	0xbd7e384f	-0.06206542
186	0xbdd43ff0	-0.103637576
187	0xbe204421	-0.15650989
188	0xbd316df9	-0.04331777
189	0xbd37ecd5	-0.044903595
190	0xbe42412e	-0.18970177
191	0xbe849b16	-0.2589957
192	0xbe927fbc	-0.2861308
193	0xbe6fc992	-0.23416737
194	0xbdaa92d4	-0.083287865
195	0xbe525957	-0.20541893
196	0xbe498d92	-0.19682911
197	0xbe62147a	-0.22078124
198	0xbdbf55a5	-0.09342507
199	0xbdf1eca0	-0.11812711
200	0xbdae1c3a	-0.085014775
201	0x3daaaa70	0.083332896
202	0xbbb0d7a6	-0.005396801
203	0xbdcc22fe	-0.09967612
204	0xbe271366	-0.16315994
205	0x3c5fc32d	0.013657373
206	0x3ded3bba	0.115836576
207	0xbd048a5e	-0.03235852
208	0x3d816f98	0.06320113
209	0xbe0e8ed4	-0.13921672
210	0xbcdcf3a6	-0.02697165
211	0x3d0938db	0.033501487
212	0x3c4f63a7	0.012658036
213	0x3b0dcf5b	0.0021638486
214	0xbdf7f2bb	-0.12106844
215	0xbdeae6e1	-0.11469818
216	0xbe1bf3bb	-0.15229695
217	0xbd45b924	-0.048272267
218	0xbdc7e6e9	-0.097608395
219	0xbe2949f1	-0.16532113
220	0x3d8dedde	0.06930135
221	0x3da394d8	0.07987374
222	0x3da1abe8	0.07894117
223	0xbd3c86da	-0.046027042
224	0x3d1cdce5	0.0382966
225	0x3b99169e	0.0046718856
226	0xbde010c0	-0.10940695
227	0x3d8526d9	0.0650155
228	0x3dac8651	0.08424056
229	0xbc445485	-0.011983042
230	0xbd6fe1f3	-0.05856509
231	0xbe1f1c6c	-0.15538186
232	0xbc94ff97	-0.018188281
233	0xbcc340fd	-0.0238347
234	0x3e37e2d2	0.17957619
235	0xbe206823	-0.15664725
236	0xbdd6623b	-0.10467955
237	0xbe10d602	-0.14144138
238	0xbcbd62c5	-0.023118386
239	0xbbf06675	-0.0073364326
240	0xbda7aac8	-0.08186871
241	0xbcc9df6f	-0.024642674
242	0x3a80016c	0.0009766049
243	0xbd697916	-0.057000242
244	0xbd8930b8	-0.066987455
245	0xbd925085	-0.07144264
246	0xbc5dd5e7	-0.013539768
247	0xbde1b199	-0.11020202
248	0xbd46bcb2	-0.048519798
249	0xbce6f974	-0.02819512
250	0xbdd6d7e0	-0.10490394
251	0xbcb3a69c	-0.021930031
252	0x3d4af6de	0.049551837
253	0x3d42c27f	0.047548767
254	0x3df3ae5a	0.11898489
255	0x3d431631	0.047628585

conv1.bias f4 [6]
0	0x3de5f2d8	0.112279594
1	0x3d1ba108	0.03799537
2	0xbe3052c1	-0.17219068
3	0x3f4709b3	0.77749175
4	0x3ee6ddd0	0.45091105
5	0x3e140b80	0.14457512

conv2.weight f4 [16, 6, 5, 5]
0	0xbd364ae3	-0.04450501
1	0xbdac7665	-0.084210195
2	0xbd872410	-0.06598675
3	0x3d0ac239	0.03387663
4	0x3d3000f3	0.042969655
5	0xbd078f6b	-0.03309576
6	0xbcede17e	-0.029038187
7	0x3d2362b5	0.039889056
8	0xbd0707c8	-0.032966405
9	0xbd7b73d7	-0.06138977
10	0x3d5c72eb	0.05382053
11	0xbda9aca7	-0.08284884
12	0xbbe488c1	-0.00697431
13	0x3d7eb4b9	0.06218407
14	0xbd60af69	-0.054854784
15	0x3d66b07d	0.056320656
16	0xba670b65	-0.00088136486
17	0x3dc73041	0.097260006
18	0x3d9058fc	0.070482224
19	0x3d3499e8	0.04409209
20	0x3b167151	0.0022955725
21	0xbd56714f	-0.052354153
22	0x3bc60866	0.0060434816
23	0x3d95945b	0.07303687
24	0xbcbf5630	-0.023356527
25	0x3dc3ca54	0.095600754
26	0x3d5514a0	0.052021623
27	0x3de746ab	0.11292776
28	0x3d91ac4c	0.07112941
29	0x3e077c72	0.13231066
30	0xbd1d091b	-0.03833876
31	0xbcedd76d	-0.029033387
32	0xbcbcbb67	-0.02303858
33	0xbc94a6f3	-0.018146014
34	0xbba7e450	-0.0051236525
35	0x3d323b64	0.04351367
36	0x3b9d7c71	0.0048060943
37	0xbc76acad	-0.015055818
38	0xbcbbe480	-0.022936106
39	0x3d7aa9af	0.06119698
40	0x3d853990	0.0650512
41	0x3d4dd9c6	0.050256513
42	0x3d3fa547	0.04678848
43	0x3c590a24	0.013247047
44	0x3d9a3956	0.07530467
45	0x3c404d00	0.011737108
46	0x3bab27b2	0.005223238
47	0xbdbaa03b	-0.09112593
48	0x3adbf1cd	0.0016780436
49	0xbb48365b	-0.0030549977
50	0x3e2d3b62	0.16917184
51	0x3dd5b391	0.1043464
52	0x3dc21361	0.094763525
53	0x3ae448dd	0.0017416734
54	0xbd668902	-0.056283005
55	0x3c8d0508	0.017214313
56	0x3dff3ad2	0.12462391
57	0x3d6f8f7c	0.058486447
58	0xbc986ae8	-0.018605664
59	0xbdb195f7	-0.08671182
60	0xbc960394	-0.018312253
61	0x3df9dfe3	0.12200906
62	0xbd0e6712	-0.034766264
63	0xbd51255e	-0.051061027
64	0xbdb9f73d	-0.0908036
65	0x3dc92342	0.09821178
66	0x3d7d1826	0.061790608
67	0x3d3093db	0.043109756
68	0xbd94a2ec	-0.072576374
69	0xbc8538bf	-0.01626241
70	0xbbcc7aad	-0.00624021
71	0x3d2251b2	0.039628692
72	0x3c6890d3	0.014194685
73	0xbdbb4da4	-0.09145668
74	0xbcca954f	-0.024729399
75	0x3dbe6cb8	0.0929808
76	0x3e1ba84f	0.15200923
77	0x3d932f66	0.07186775
78	0x3d89e2c7	0.067327075
79	0x3d8b2fab	0.06796201
80	0x3dfb3125	0.12265233
81	0x3dc79496	0.097451374
82	0x3dd61dba	0.10454889
83	0xbd3b7ebe	-0.045775168
84	0x3d7f6e83	0.06236125
85	0x3da4f19c	0.08053896
86	0x3d7c5f8d	0.06161456
87	0x3d8ce3ea	0.06879409
88	0x3b492b1a	0.0030695857
89	0x3ad405c5	0.0016176036
90	0xbb50b239	-0.003184451
91	0xbca49c91	-0.020094188
92	0xbdbc1379	-0.091834016
93	0xbdfe4e90	-0.12417328
94	0xbcd0269a	-0.025409032
95	0xbdbd97e9	-0.0925749
96	0xbdce4c42	-0.10073139
97	0xbbd7aa1e	-0.006581559
98	0xbda94edd	-0.08266995
99	0xbe169b02	-0.14707568
100	0xbd60b591	-0.054860655
101	0xbddeb71b	-0.10874768
102	0x3cffc466	0.03122158
103	0xbd5e5f4b	-0.054290097
104	0xbdf2f7d9	-0.118636794
105	0xbda7091c	-0.08156034
106	0x3d0e1fb1	0.034698192
107	0xbd8028f9	-0.06257815
108	0x3d2018c2	0.03908611
109	0xbd64bd79	-0.055844758
110	0x3cf09d4c	0.02937188
111	0x3d8f1f9b	0.0698845
112	0x3db19080	0.08670139
113	0xbd17b2ff	-0.03703594
114	0x3d9956d3	0.074872635
115	0xbd695477	-0.056965318
116	0x3d806deb	0.06270965
117	0x3d330fe0	0.04371631
118	0xbc14d63d	-0.0090842815
119	0x3d0ada86	0.033899806
120	0xbb6603dd	-0.0035097518
121	0x3bc15120	0.0058995634
122	0x3d78c9cf	0.060739335
123	0xbcb6f2d8	-0.022332594
124	0xbd82c863	-0.06385877
125	0xbcdf57e7	-0.027263595
126	0xbd70d6dd	-0.05879866
127	0xbc937b3d	-0.0180031
128	0xba9fc0cb	-0.0012188194
129	0x3c3342ea	0.0109412465
130	0xbd96ea72	-0.07368936
131	0xbd8ee1e9	-0.06976683
132	0x3d94756b	0.07248958
133	0x3cb53ac6	0.022122752
134	0xbd65142b	-0.055927437
135	0x3db86704	0.09004024
136	0x3d8193ed	0.06327043
137	0xbd1f60d3	-0.0389107
138	0x3d9f7764	0.07786444
139	0xbd3d81a2	-0.046266206
140	0x3ddecfd3	0.10879483
141	0x3dde2d38	0.108484685
142	0xbc4f9616	-0.012670061
143	0x3bf999b0	0.007617198
144	0x3d2ac737	0.041693892
145	0x3dc6d494	0.09708515
146	0x3d5cc14c	0.05389528
147	0xbc3167f3	-0.010828006
148	0x3d8251c4	0.06363252
149	0xbb84aaa0	-0.0040486604
150	0x3ce68565	0.02813978
151	0x3da2adaa	0.0794328
152	0xbbacb6e0	-0.005270824
153	0x3d9e7f16	0.077390835
154	0xbd17c3a7	-0.037051823
155	0xbd46845c	-0.04846607
156	0xbd61e48a	-0.055149592
157	0x3dae1430	0.08499944
158	0xbc0b775b	-0.008512343
159	0xbd0d7312	-0.034533568
160	0x3b118690	0.002220545
161	0x3cfbc8d6	0.030735414
162	0xbd3f6ab7	-0.04673263
163	0x3d8f16f0	0.06986797
164	0x3d6c03ff	0.057621
165	0x3c9e1d40	0.019301057
166	0x3d2be796	0.041968904
167	0xbd44d15e	-0.04805123
168	0x3d7cb83f	0.06169915
169	0x3d3a51ae	0.045488052
170	0xbca5fba2	-0.02026159
171	0xbd9c72af	-0.07639062
172	0xb8f4c2b1	-0.00011671091
173	0x3cb0ec01	0.02159691
174	0x3c6eecdf	0.014582842
175	0x39756a07	0.00023404519
176	0xbd1d2198	-0.038362116
177	0x3d536a8f	0.051615294
178	0xbc44d4be	-0.012013612
179	0xbd36e8e4	-0.044655696
180	0xbc266d96	-0.010157963
181	0x3d3bbaf7	0.0458326
182	0xbd1935f6	-0.037404977
183	0xbcc641e8	-0.024201348
184	0x3d71e8af	0.059059795
185	0xbd9c76a8	-0.076398194
186	0xbccd798f	-0.025082378
187	0xbd398beb	-0.04529945
188	0xbd7635f0	-0.060110033
189	0xbd9e0ee0	-0.07717681
190	0xbd879776	-0.06620686
191	0xbd7e2020	-0.062042356
192	0xbc5198e4	-0.0127928
193	0x3c083eef	0.008315786
194	0xbd650800	-0.055915833
195	0xbcacd5a2	-0.021097962
196	0xbd0c0b22	-0.034190305
197	0xbd022cd1	-0.03178102
198	0x3d9c2e11	0.07625974
199	0x3c40db4b	0.0117710335
200	0x3d198df0	0.037488878
201	0x3d1e8cda	0.038708545
202	0x3d68b6e1	0.056815032
203	0xbd08541f	-0.03328335
204	0xbd063e12	-0.03277404
205	0xbcdb35dc	-0.02675908
206	0xbb3a7a24	-0.002845415
207	0xbce6a191	-0.028153213
208	0x3c4ced86	0.012507802
209	0x3adbd171	0.0016770792
210	0xbcb7a7bb	-0.022418847
211	0xbd26f26a	-0.040758528
212	0x3d659a77	0.056055512
213	0xbd18214d	-0.037141133
214	0xbd74235e	-0.05960404
215	0xbd23e413	-0.04001243
216	0x3d7a30d4	0.061081722
217	0x3cd5109b	0.026008895
218	0x3d937b10	0.07201207
219	0x3cfa22d4	0.030534185
220	0xbc8b8bf9	-0.017034518
221	0x3dabdd3d	0.08391807
222	0x3d40916c	0.047013685
223	0x3d94a1a3	0.07257392
224	0x3bdab878	0.0066748224
225	0x3d9713dc	0.07376835
226	0x3bca0308	0.006164912
227	0xbda0135d	-0.07816193
228	0x3bffe7c7	0.0078096124
229	0xbd12d234	-0.035844997
230	0xbd80bc72	-0.06285943
231	0x3d8a27c7	0.06745868
232	0xbd9a42dd	-0.075322844
233	0xbc6aecc5	-0.014338677
234	0xbd0ee66b	-0.034887712
235	0xbd044fdc	-0.032302722
236	0x3c8759a9	0.016522245
237	0x3af9169e	0.0019003933
238	0xbcae5f16	-0.021285575
239	0xbc8cbd62	-0.017180149
240	0x3d140531	0.036137763
241	0xbd6ac141	-0.057313208
242	0x3d16a731	0.03678054
243	0xbb640644	-0.0034793774
244	0xbc8d97fb	-0.017284384
245	0x3ccc675e	0.024951633
246	0x3aa0c0f1	0.0012264532
247	0xbd1121ea	-0.035432734
248	0x3d9c986e	0.07646261
249	0xbd182a66	-0.03714981
250	0xba483df8	-0.00076386286
251	0xbb94590a	-0.004527216
252	0xbcff1966	-0.03114004
253	0x3b1ba25c	0.0023747897
254	0x3d3900a3	0.045166623
255	0xbd65ec08	-0.0561333

conv2.bias f4 [16]
0	0xbdcfce52	-0.10146774
1	0xbcb24137	-0.021759612
2	0x3e7d9c3b	0.24766628
3	0x3ce5063d	0.027957076
4	0xbd606125	-0.054780144
5	0xbe0317d2	-0.12802055
6	0xbe0ec188	-0.13941014
7	0x3cbbcb7f	0.022924183
8	0x3dbc7220	0.09201455
9	0x3c0b45eb	0.008500556
10	0xbd98d590	-0.07462609
11	0xbc6bb295	-0.014385839
12	0xbdddc109	-0.10827834
13	0x3dbcb23a	0.092136815
14	0x3e061939	0.13095559
15	0x3d12cc60	0.03583944

fc1.weight f4 [120, 400]
0	0x39b10bd6	0.0003376889
1	0x3d2453ba	0.04011891
2	0x3d478669	0.048712168
3	0x3cb00595	0.021487037
4	0xba382279	-0.000702418
5	0x3d22e5f9	0.0397701
6	0x3cc269aa	0.023732025
7	0x3d2075dd	0.039174903
8	0x3d3c5acd	0.045985032
9	0xbcf289ad	-0.029606665
10	0xbc417382	-0.011807324
11	0xbcd06297	-0.025437636
12	0x3b731622	0.003709205
13	0xbbd8c829	-0.006615658
14	0x3acbc6f8	0.0015546968
15	0xbd3e17e1	-0.04640949
16	0x3cb2624b	0.021775385
17	0xbd22b377	-0.039721932
18	0xbcf02ada	-0.029317308
19	0xbd175a58	-0.036951393
20	0xbd2987bc	-0.041389212
21	0x3d0c78d3	0.034294914
22	0x3d1e9f8e	0.038726382
23	0xbd3f1c17	-0.046657648
24	0x3b25c27a	0.002529292
25	0x3d0d1710	0.034445822
26	0x3ce0a63c	0.027423017
27	0x3d2b8457	0.041874256
28	0x3d09edb0	0.033673942
29	0xb89da325	-7.5167314e-05
30	0xbd0f58f7	-0.034996953
31	0x3d2f19fb	0.042749386
32	0xbd136ba8	-0.03599134
33	0x3d2a5953	0.041589092
34	0xbceb3d03	-0.028715616
35	0xbd362318	-0.04446706
36	0xbd165033	-0.036697578
37	0xbc53ee6a	-0.01293526
38	0xbc4c39cd	-0.012464953
39	0x3cee6e74	0.029105403
40	0xbc42b088	-0.011882909
41	0x3d2cacc5	0.042156953
42	0x3cef8c95	0.02924184
43	0xbd481821	-0.048851136
44	0xbc52a6b6	-0.01285713
45	0x3d03584d	0.032066632
46	0x3c89c91e	0.016819533
47	0xbc410fd7	-0.011783562
48	0x3bb73ee1	0.0055922125
49	0x3d441049	0.047867093
50	0xbd3488ae	-0.04407566
51	0xbc0ba278	-0.008522622
52	0xbd11c360	-0.035586715
53	0x3c9f3c09	0.019437807
54	0xbccb47fb	-0.024814596
55	0xbb62e550	-0.0034621544
56	0x3c852ec3	0.01625765
57	0xbc8f46a1	-0.017489733
58	0x3b06a3e9	0.0020544475
59	0x3c924ac2	0.017857913
60	0xbd29b471	-0.041431848
61	0x3b24174e	0.0025038305
62	0xbcc29dd5	-0.0237569
63	0x3ce03994	0.027371205
64	0xbc412e26	-0.011790788
65	0xbaa979fa	-0.0012930029
66	0x3ca9788b	0.020687362
67	0xbd1e7b9c	-0.0386921
68	0x3d045cf3	0.032315206
69	0xbd48559d	-0.048909772
70	0xbd04800e	-0.032348685
71	0xbd490b14	-0.04908283
72	0x3b3ec418	0.002910858
73	0xbc8fdf9d	-0.017562682
74	0xbd0724c8	-0.03299406
75	0xbcc9b3e4	-0.024621911
76	0xbae7e980	-0.001769349
77	0x3c0666b5	0.008203198
78	0x3c808cbc	0.015692107
79	0x3bd6a70c	0.0065506753
80	0xbd14e367	-0.03634968
81	0x3d22273e	0.039588206
82	0x3d0d9bc0	0.034572363
83	0x3c9c0a6d	0.01904794
84	0x3bcf5ade	0.006327971
85	0xbc4f8aa5	-0.012667333
86	0xbbf3f500	-0.0074449778
87	0x3d0e2806	0.034706138
88	0xbc7d04c6	-0.015443033
89	0x3cb3e54a	0.02195992
90	0xbb9a7374	-0.00471347
91	0xbd134ba5	-0.035960812
92	0xbcdc2384	-0.026872404
93	0xbccc0b0a	-0.024907608
94	0xbd3d2700	-0.04617977
95	0xb9889637	-0.0002605186
96	0x3c9aab54	0.018880524
97	0xbc3c99cf	-0.01151128
98	0x3cbfb170	0.023400038
99	0xbc6d4e54	-0.014484007
100	0x3d437424	0.047718182
101	0xbd2bdd09	-0.041958842
102	0xbd1a7378	-0.037707776
103	0xbc913a66	-0.017728042
104	0xbaa8393c	-0.001283444
105	0xbd141224	-0.036150113
106	0xbc810462	-0.01574916
107	0xba0ca309	-0.00053648703
108	0xbc093740	-0.008374989
109	0xbc1f1cd5	-0.009711464
110	0x3d002d00	0.031292915
111	0x3d22e5f1	0.03977007
112	0x3d25c7e2	0.040473826
113	0x3c97b6f4	0.018519856
114	0x3c8daaaa	0.017293293
115	0xbce569eb	-0.028004607
116	0x3c85b390	0.016320974
117	0xbc935798	-0.017986104
118	0xbc0ff9c3	-0.008787575
119	0x3ce87309	0.028375166
120	0xbc111655	-0.008855422
121	0xbd0c45bb	-0.034246188
122	0xbccdeaac	-0.025136314
123	0xb97d8cf6	-0.00024180472
124	0xbce5687d	-0.028003925
125	0x3b813e0d	0.0039441646
126	0xbc1ff65d	-0.009763327
127	0xbc3d7d46	-0.011565512
128	0xbcab8fc6	-0.02094258
129	0x3c6b972e	0.014379306
130	0x3cd32475	0.02577422
131	0xbcba0093	-0.022705352
132	0x3c85f3eb	0.01635166
133	0x3d3199df	0.043359634
134	0xbce3fcf7	-0.027830584
135	0xbd06885b	-0.032844882
136	0x3c985dbf	0.01859939
137	0xbbac64b9	-0.0052610305
138	0xbc2a4c4a	-0.010394165
139	0xbd10371d	-0.03520881
140	0xbbfde770	-0.0077485368
141	0x3ca39d10	0.019972354
142	0x3ccfd5ed	0.025370562
143	0x3d1be88e	0.03806358
144	0x3bf0a966	0.0073444126
145	0xbb6ddd8b	-0.003629538
146	0xbc6d85d5	-0.01449724
147	0xbcbc9e22	-0.023024622
148	0xbba67104	-0.0050793905
149	0x3c0530a1	0.00812927
150	0x3c0e024c	0.00866754
151	0x3d315eeb	0.04330341
152	0x3cabb7bd	0.020961637
153	0xbd0eeb64	-0.034892455
154	0xbc39dd30	-0.011344239
155	0x3b19f09b	0.002348936
156	0xbd089f9a	-0.033355333
157	0xbcc3f8a7	-0.023922278
158	0x3bace5a4	0.0052763987
159	0xbc090106	-0.00836206
160	0x3d02b7e4	0.031913653
161	0xbcb26257	-0.021775408
162	0x3d45629a	0.048189737
163	0xbb5633d7	-0.0032684708
164	0x3c88dfcd	0.016708279
165	0xbc83575e	-0.01603287
166	0x3cc02d2f	0.023459045
167	0x3d38f6ec	0.045157358
168	0x3d361009	0.044448886
169	0xbbc2be60	-0.0059431046
170	0x3d1696fb	0.03676508
171	0x3d4266be	0.047461264
172	0xbc9ed36c	-0.019387923
173	0x3c96b40a	0.018396396
174	0x3c8ecaab	0.017430624
175	0xbcc198e1	-0.023632469
176	0x3c738b16	0.014864704
177	0x3c4b6720	0.012414724
178	0xbca9fca1	-0.020750346
179	0xbd47a6af	-0.048742946
180	0xbcb995c8	-0.02265443
181	0x394a694b	0.00019303446
182	0x3cb3ea99	0.02196245
183	0x3c2fe7fc	0.010736462
184	0xbcfd009a	-0.030884076
185	0xbbb56cf5	-0.0055366703
186	0x3cb02811	0.02150348
187	0x3cc2a4fa	0.023760308
188	0xbcb4dedc	-0.022078924
189	0x3d001bf9	0.031276677
190	0x3d485dc3	0.048917543
191	0x3ae89582	0.0017744752
192	0x3cb695e1	0.022288265
193	0xbd4a7eb5	-0.049437243
194	0xbcb09254	-0.02155415
195	0xbd363f7c	-0.044494137
196	0xbc2c6753	-0.010522681
197	0xbc2c19c4	-0.01050419
198	0x3d2bf466	0.041981123
199	0xbce597ad	-0.028026426
200	0xbd497714	-0.049185827
201	0x3d40c392	0.04706151
202	0xbd3e2594	-0.046422556
203	0x3c070563	0.00824103
204	0x3c982748	0.018573418
205	0xbcea2593	-0.02858237
206	0xbcae7e7d	-0.021300549
207	0x3d281c82	0.041042812
208	0xbd343706	-0.043997787
209	0xbcd9cf29	-0.02658804
210	0x3c05b482	0.008160712
211	0x3d1ebc57	0.038753834
212	0x3c603c86	0.013686305
213	0xbc927975	-0.01788018
214	0xbd3f5473	-0.046711396
215	0xbd029811	-0.031883303
216	0x3cff911a	0.03119712
217	0xbcdf3b9e	-0.027250107
218	0x3d09f699	0.03368244
219	0xbd0fccb7	-0.03510734
220	0x3ce88ada	0.028386522
221	0xbd113fec	-0.03546135
222	0xba9fc8f9	-0.0012190632
223	0x3cc9fb10	0.024655849
224	0xbc78a1c0	-0.015175283
225	0x3bc8ecce	0.006131745
226	0x3d26e704	0.040747657
227	0xbd430a2b	-0.04761712
228	0xbbbba53a	-0.0057264837
229	0xbc90c7f5	-0.017673472
230	0x3d16c5f8	0.03680989
231	0xbd2e1e54	-0.042509392
232	0x3d34fec4	0.044188276
233	0xbbafcaed	-0.005364767
234	0x3d4cd9af	0.050012287
235	0xbca243c1	-0.019807698
236	0x3c300214	0.010742683
237	0x3d24d891	0.040245596
238	0x3d08d6b3	0.033407878
239	0x3d352422	0.044223912
240	0x3cee055c	0.02905529
241	0xbd409ed4	-0.04702647
242	0xbd3a4211	-0.045473162
243	0xbc9ae954	-0.018910088
244	0x3c91417c	0.01773142
245	0xbcf16472	-0.029466841
246	0xbd03d700	-0.03218746
247	0xbcb18fa1	-0.021674933
248	0xbcf308d2	-0.029667292
249	0x3bc131d8	0.0058958344
250	0xbad0e18e	-0.0015936361
251	0x3c728fe3	0.014804813
252	0x3bc6de4e	0.0060689813
253	0xbc82f8a5	-0.015987704
254	0xbb70c987	-0.0036741213
255	0xbc80b999	-0.0157135

fc1.bias f4 [120]
0	0xbcfd5c7f	-0.030927895
1	0x3cfa741c	0.030572943
2	0x3ce6b68a	0.028163213
3	0x3dcc3cb2	0.09972514
4	0x3ca9a915	0.020710507
5	0xbbc86cef	-0.0061165015
6	0xbcd0bdce	-0.02548113
7	0xbd32dc80	-0.043667316
8	0xbd07041e	-0.03296291
9	0xbd5aa7e8	-0.053382784
10	0x3daf80f0	0.08569515
11	0x3d9e3cd5	0.077264465
12	0x3a899785	0.0010497427
13	0xbd2d34b3	-0.042286586
14	0x3b9eebd0	0.0048498884
15	0xbcddb093	-0.027061736
16	0xbb7163ba	-0.0036833123
17	0xbd358824	-0.044319287
18	0xbce65e2a	-0.028121073
19	0x3d27237b	0.04080532
20	0xbd2dcd20	-0.04243195
21	0xbb84cdde	-0.0040528616
22	0xbb891318	-0.0041831844
23	0x3c84b1a6	0.01619799
24	0xbce6f424	-0.028192587
25	0x3d951a52	0.07280411
26	0xbc0a5971	-0.008444176
27	0x3bdde88c	0.0067721065
28	0x3d7cdc8d	0.06173377
29	0xbd83bb64	-0.06432226
30	0x3c7a7472	0.015286552
31	0x3d1a4fc8	0.03767374
32	0x3d20f2ac	0.03929393
33	0xbc2c86e8	-0.010530211
34	0x3c2dd131	0.010608957
35	0x3cfc2cd6	0.030783098
36	0x3c953c89	0.018217342
37	0x3d007639	0.031362746
38	0x3c01f006	0.007930761
39	0xbcd4ee92	-0.025992665
40	0xbc095db2	-0.008384155
41	0x3cab27b8	0.020892963
42	0x3d59e39e	0.05319559
43	0xbd3f1de8	-0.04665938
44	0xbd6da0d0	-0.05801469
45	0x3cf62cb1	0.030050607
46	0xbd2a8016	-0.04162606
47	0xbd8e8c2f	-0.06960332
48	0x3cca3c21	0.024686875
49	0x3b078b83	0.002068252
50	0xbc0a1b8b	-0.008429418
51	0xbcf473e7	-0.029840423
52	0xbc4f75c2	-0.012662353
53	0x3d334326	0.04376521
54	0x3cbeb8eb	0.023281535
55	0xbc61b2e8	-0.013775565
56	0x3dc48654	0.095959336
57	0xbd0a175a	-0.033713676
58	0xbca1c283	-0.01974607
59	0x3d834654	0.064098984
60	0xbbcbe11d	-0.006221904
61	0x3c9bdc43	0.019025927
62	0x3d3cc4b7	0.04608604
63	0x3cc86d39	0.024466144
64	0x3d32fc7f	0.04369783
65	0x3cf15b5e	0.029462513
66	0x3d035e17	0.032072153
67	0x3cd3cbb8	0.025853977
68	0x3d0b34f2	0.03398604
69	0x3c31fd3b	0.0108635975
70	0x3d829b51	0.063772805
71	0x3c951b15	0.01820139
72	0x3c374303	0.01118541
73	0xbd21ca75	-0.03949972
74	0x3ba3d463	0.0049996837
75	0x3da63cdb	0.08117076
76	0x3c98e771	0.018665047
77	0xbcabaa2d	-0.02095517
78	0xbd4ee687	-0.050512817
79	0x3d719b18	0.0589858
80	0x3d2e565d	0.04256283
81	0x3c50142a	0.01270012
82	0xbd25d413	-0.040485453
83	0xbcfa62d9	-0.030564712
84	0xbd01c1d8	-0.031679004
85	0x3c310be0	0.010806054
86	0x3b93c491	0.0045095165
87	0xbd9192a6	-0.07108049
88	0x3ccd09eb	0.025029143
89	0x3d2d376c	0.042289183
90	0xbc2c11bd	-0.010502276
91	0x3ca02085	0.019546757
92	0xbd6ee3ae	-0.0583226
93	0xbacbc503	-0.0015546385
94	0x3b996afa	0.004681942
95	0x3d7af1c7	0.061265733
96	0x3d839b6d	0.064261295
97	0x3b7f7c0f	0.0038983857
98	0x3bb764eb	0.005596747
99	0x3ce43bcf	0.02786055
100	0x3ca6cb0e	0.020360496
101	0x3c1806b8	0.009278946
102	0x3a502281	0.0007939712
103	0x3d1ed0f8	0.038773507
104	0xbd3b1a36	-0.045679294
105	0xbc94991f	-0.01813942
106	0xbce9ca18	-0.028538749
107	0xbcdc086f	-0.02685949
108	0x3d010023	0.03149427
109	0xbb62bf9b	-0.003459907
110	0x398dd6bd	0.00027053608
111	0x3cfa33db	0.030542305
112	0x3bc89926	0.0061217723
113	0xbd407210	-0.04698378
114	0xbcda9d87	-0.026686443
115	0xbb9cfb0b	-0.004790669
116	0xbc5bac5a	-0.013407791
117	0x3d03529b	0.0320612
118	0x3bbfbabe	0.005851119
119	0x3d7b8ab7	0.061411586

fc2.weight f4 [84, 120]
0	0x3d904817	0.07045
1	0x3dc62211	0.096744664
2	0xbd5b5573	-0.053548288
3	0x3d9e0000	0.07714844
4	0x3d02c919	0.031930063
5	0xbb128575	-0.0022357379
6	0xbdb8ca40	-0.09022951
7	0x3d9c0d27	0.07619696
8	0xbb4af910	-0.0030971207
9	0xbc57c51d	-0.013169554
10	0xbc399b51	-0.011328534
11	0x3b4181be	0.0029526795
12	0xbd6c2c29	-0.057659302
13	0x3d32eff9	0.043685887
14	0xbd144dcc	-0.036207005
15	0xbca6a0e5	-0.020340392
16	0x3d93383a	0.07188459
17	0x3d6e28d8	0.05814442
18	0x3dbf872e	0.09351955
19	0x3c98674d	0.018603945
20	0x3d5e7795	0.05431326
21	0xbd596b8d	-0.053081084
22	0xbab1cfe0	-0.001356598
23	0xbcc994fb	-0.024607172
24	0x3ae71932	0.001763141
25	0x3db58077	0.08862393
26	0xbcabc75b	-0.020969084
27	0x3c4f5f36	0.012656977
28	0x3d9e2bd0	0.077232
29	0xba0857a9	-0.00052010507
30	0xb9db49af	-0.00041825834
31	0x3daf5d63	0.08562734
32	0x3d8f57e1	0.069991834
33	0xbd9eb276	-0.077488825
34	0xbd36b402	-0.044605263
35	0xbd79004f	-0.06079131
36	0x3db0563a	0.086101964
37	0xbd2b5c3a	-0.041836
38	0xbd8e2f62	-0.06942631
39	0x3c4f8c5a	0.01266774
40	0xbd2f1edf	-0.04275405
41	0xbdb5178d	-0.088423826
42	0xbbe82786	-0.0070847897
43	0x3cbe4712	0.023227248
44	0xbd233ad9	-0.039851043
45	0x3b475eb0	0.0030421428
46	0xbc1fc120	-0.009750634
47	0x3afdb333	0.0019355774
48	0xbc9e9256	-0.019356888
49	0x3cacdb36	0.021100622
50	0x3d848507	0.064706855
51	0xbc78b385	-0.01517952
52	0x3da9f247	0.08298164
53	0x3b097637	0.0020975003
54	0x3cf1d337	0.02951966
55	0xbc9842cd	-0.01858654
56	0xbd02768b	-0.031851333
57	0x3d81db36	0.06340639
58	0xbc981c1b	-0.01856809
59	0xbb980616	-0.0046393974
60	0xbd7f910e	-0.062394194
61	0x3d59f3d0	0.053211033
62	0xbcc3fac5	-0.023923287
63	0x3b26dfe7	0.0025463046
64	0x3d89ec85	0.06734566
65	0x3a90e9df	0.0011056027
66	0x3d933795	0.07188336
67	0xbd00dd29	-0.031460915
68	0xbd9a2e3c	-0.0752835
69	0xbc8fcbca	-0.017553229
70	0xbbf7bee0	-0.007560596
71	0x3d113d2e	0.035458736
72	0xbd9cc821	-0.07655359
73	0x3d96abc3	0.0735698
74	0x3be42271	0.0069621135
75	0xbc6ed9cc	-0.014578294
76	0xbd9dedc5	-0.077113666
77	0xbcd5b0d6	-0.026085299
78	0xbd976e0e	-0.07394038
79	0x3d1465dc	0.036229953
80	0x3dadcb3a	0.08486028
81	0x3c80f636	0.015742403
82	0x3d11c254	0.035585716
83	0xbcd33c93	-0.02578572
84	0x3d07c20c	0.033144042
85	0xbd720704	-0.059088722
86	0x3d7251de	0.059160106
87	0xbccb1227	-0.02478893
88	0xbd0e3b76	-0.034724675
89	0x3db2ac96	0.087243244
90	0x3d0df2fa	0.03465555
91	0x3c0c8ffc	0.00857925
92	0x3bc05efa	0.005870697
93	0xbd1c4ecc	-0.038161084
94	0xbd9afaea	-0.07567389
95	0xbd322220	-0.043489575
96	0x3dc88b2a	0.097921684
97	0xbd7e8e01	-0.062147144
98	0x3c9b112e	0.01892909
99	0xbc5b5899	-0.013387823
100	0x3d981c03	0.07427218
101	0xbd03dedd	-0.03219496
102	0xbdd38dd4	-0.10329786
103	0xbc1eb96e	-0.009687765
104	0xbce8ab02	-0.028401855
105	0xbd86967b	-0.065716706
106	0xbd27a281	-0.04092646
107	0xba6bc307	-0.00089936
108	0xbcc1e4cd	-0.023668671
109	0xbda22a43	-0.07918217
110	0x3d23b14b	0.039964
111	0xb9d53049	-0.000406625
112	0xbd4d5082	-0.050125606
113	0x3da3ddfc	0.080013245
114	0x3da94a64	0.08266142
115	0x3c998ca2	0.018743817
116	0x3d6f93d2	0.05849058
117	0x3d8cb944	0.06871274
118	0xbd21fd22	-0.039548047
119	0x3dc1d64e	0.094647035
120	0x3d34b031	0.04411334
121	0x3d8e3f9d	0.06945727
122	0xbd4bfc46	-0.049801134
123	0x3d9a61f3	0.075382136
124	0x3d83630a	0.064153746
125	0xbd8f5899	-0.069993205
126	0xbd478dc6	-0.04871919
127	0x3dcfc8f3	0.1014575
128	0x3d460cc0	0.048352003
129	0x3ca67bf6	0.020322781
130	0xbd2d245e	-0.04227101
131	0x3da6d7ce	0.0814663
132	0xbd95cde8	-0.07314664
133	0xbd7a098a	-0.061044253
134	0x3d39dfb2	0.045379348
135	0xbd9c8ccf	-0.076440446
136	0xbd70031f	-0.058596727
137	0x3c7d1a59	0.015448176
138	0xbb1596a5	-0.0022825387
139	0x3d385191	0.044999663
140	0x3d5e93ed	0.05434029
141	0xbcd5e700	-0.026111126
142	0xbd09f493	-0.03368051
143	0xbca25948	-0.019817963
144	0xbcfeeaf4	-0.031117894
145	0xbd3d6052	-0.046234436
146	0x3ca247f8	0.019809708
147	0xbc1dae67	-0.0096241
148	0xbc0356d0	-0.008016303
149	0x3d92d474	0.071694285
150	0x3da10176	0.07861607
151	0xbbd0c554	-0.0063711796
152	0xbd4bd9d5	-0.049768288
153	0x3bfd73d8	0.007734757
154	0x3dc5410c	0.09631547
155	0x3cf0c489	0.02939059
156	0x3cc5ad0e	0.02413037
157	0x3d8a2121	0.067446
158	0xbd852ea9	-0.0650304
159	0x3dfab77d	0.12242029
160	0x3d1aea9f	0.03782141
161	0x3d9022f7	0.07037919
162	0x3ce4ff7a	0.027953852
163	0xbda8a617	-0.08234804
164	0xbcc92269	-0.02455254
165	0xbd9bebe1	-0.0761335
166	0x3db756f9	0.089521356
167	0xbd7ac786	-0.061225437
168	0x3dcaf474	0.09909907
169	0x3ca0dc9d	0.019636447
170	0xbcdfed26	-0.02733476
171	0xbd903af8	-0.070424974
172	0x3d85e6d5	0.06538168
173	0x3d43689e	0.047707193
174	0xbd2bf1e9	-0.04197875
175	0xbd80b29c	-0.06284067
176	0xbc217561	-0.0098546455
177	0x3d5bfabf	0.053705927
178	0x3d8f598f	0.06999504
179	0xbd85e277	-0.06537335
180	0x3b043052	0.0020170403
181	0xbd9d654b	-0.07685336
182	0x3c52f847	0.012876577
183	0xbd8bc575	-0.06824771
184	0x3db58c1e	0.08864616
185	0x3d5bc2d4	0.0536526
186	0xbcc5477d	-0.02408194
187	0x3d2ded2e	0.04246252
188	0xbd745130	-0.05964774
189	0xbceaa79e	-0.02864438
190	0x3d62a5ed	0.05533402
191	0x3d8768c7	0.066117816
192	0xbcedab1d	-0.029012257
193	0xbcb9dc8b	-0.02268817
194	0x3cd17a29	0.025570946
195	0xbdcc9eae	-0.09991203
196	0xbc006a02	-0.007837774
197	0xbc618292	-0.013764041
198	0xbd4fbb01	-0.05071545
199	0x3d0f473e	0.03498005
200	0xbd810db3	-0.06301441
201	0x3d059911	0.03261668
202	0xbc74d5b2	-0.014943527
203	0x3b866656	0.004101555
204	0x3db62976	0.08894627
205	0xbdab482a	-0.083633736
206	0x3d60e000	0.054901123
207	0x3d7e318f	0.06205898
208	0xbceb2ad5	-0.028706947
209	0x3c0bf324	0.008541856
210	0x3dc41666	0.09574585
211	0xbd9033df	-0.070411436
212	0xbdb3b171	-0.08774079
213	0x3b7a63b4	0.00382064
214	0x3d33d365	0.043902773
215	0x3dd22c60	0.1026237
216	0x3d92918f	0.07156669
217	0x3dd1cad5	0.10243765
218	0xbc17f2a8	-0.009274162
219	0xbc3b389f	-0.011427074
220	0x3c3dee0b	0.011592398
221	0xbd69d604	-0.057088867
222	0x3c5c4ed6	0.01344653
223	0x3d1c7e11	0.038206164
224	0x3d20dd9c	0.039273843
225	0x3d95798d	0.072985746
226	0x3d90c5f2	0.07069005
227	0xbc65e65d	-0.014031974
228	0x3dd7b3ba	0.10532327
229	0x3b871ba1	0.0041231667
230	0xba995cfb	-0.0011700684
231	0x3d914c1c	0.07094595
232	0x3cc8156e	0.024424281
233	0x3ddb7101	0.10714913
234	0xbd5e4c5b	-0.054272037
235	0xbcbdd39b	-0.02317219
236	0x3d58a3e5	0.052890677
237	0x3d183ce5	0.03716745
238	0xbbf07ab6	-0.007338847
239	0xbdad03ab	-0.08447965
240	0x3da14c76	0.07875912
241	0xbd24f4c1	-0.040272478
242	0xbdc0c9ec	-0.094135135
243	0xbd9ee04c	-0.07757625
244	0x3d1faa4a	0.03898076
245	0x3ddafbff	0.10692596
246	0x3b9ce33b	0.00478783
247	0x3d06e08f	0.032929
248	0xbc25f3e7	-0.010128952
249	0xbbed317b	-0.0072385645
250	0xbda107a5	-0.07862786
251	0xbdce18a4	-0.100632936
252	0x3d173c05	0.036922473
253	0x3d2b6a62	0.0418495
254	0x3d9ab15f	0.07553362
255	0x3d7ca6d1	0.061682526

fc2.bias f4 [84]
0	0x3d2cabf3	0.04215617
1	0xbd08c83b	-0.03339408
2	0x3d4e69f8	0.05039403
3	0xbbb6b966	-0.0055763004
4	0xbd116d72	-0.035504766
5	0x3e1472cf	0.14496921
6	0xbcd85441	-0.026407363
7	0x3d9c4827	0.076309495
8	0x3d813ecf	0.06310808
9	0x3ddf7cce	0.109124765
10	0x3d3ad1c2	0.045610197
11	0xbd681a1f	-0.056665536
12	0x3daf5d3b	0.08562704
13	0xbd08d046	-0.03340175
14	0x3dafcb69	0.08583719
15	0xbd0c7f65	-0.03430118
16	0x3daad07d	0.08340547
17	0xbbcb0a69	-0.0061963093
18	0xbdbb04e7	-0.091317944
19	0xb7911d2b	-1.729893e-05
20	0x3d5eaef8	0.054366082
21	0x3d10c86f	0.0353474
22	0x3d90b988	0.07066637
23	0x3b8c98a8	0.004290659
24	0xbd0247a0	-0.03180659
25	0x3e14019a	0.14453736
26	0xbd9dbb88	-0.07701784
27	0xbb910283	-0.0044253482
28	0x3cea55de	0.028605398
29	0x3e35d505	0.17757042
30	0x3d337ab4	0.04381819
31	0xbc7939d1	-0.015211538
32	0x3dda31f3	0.10654058
33	0xbd59e6f9	-0.05319879
34	0x3c89d405	0.016824732
35	0x3db0bec7	0.08630138
36	0xbcaede8a	-0.02134635
37	0x3d312029	0.04324356
38	0x3b731bf2	0.0037095514
39	0x3e3871e7	0.180122
40	0x3ceaffb5	0.028686384
41	0xbc80fc0f	-0.01574519
42	0xbd948d56	-0.0725352
43	0xbd66b017	-0.056320276
44	0xbc670739	-0.014100843
45	0xbc506663	-0.012719723
46	0x3c7d8dbd	0.015475688
47	0xbdd79aa1	-0.1052754
48	0xbd532470	-0.05154842
49	0xbc8b0243	-0.016968852
50	0x3dda60ed	0.106630184
51	0xbc3caa18	-0.011515163
52	0x3c0cea06	0.008600717
53	0x3da1c7d6	0.07899444
54	0x3d5f92a3	0.054583203
55	0x3bf21091	0.007387229
56	0xbd6fcd94	-0.058545664
57	0xbe027869	-0.12741245
58	0x3da3fe07	0.08007436
59	0xbd267be3	-0.04064549
60	0x3dcf072a	0.10108788
61	0x3e21ecc0	0.15812969
62	0xba349c53	-0.0006889749
63	0xbda07394	-0.07834545
64	0x3d7000d5	0.058594543
65	0xbbf81f9d	-0.007572128
66	0xbc580937	-0.013185791
67	0x3abee41a	0.0014563829
68	0x3dc7b413	0.09751143
69	0x3c95eb0b	0.018300554
70	0xbbf25c6f	-0.007396273
71	0x3e0e7aa0	0.13913965
72	0xbd700fcc	-0.058608815
73	0xbd2c506c	-0.042068884
74	0x3e00b585	0.12569244
75	0xbcff87f2	-0.031192753
76	0xbc8004a5	-0.015627215
77	0x3d322c87	0.043499496
78	0x3c81b382	0.015832666
79	0xbd5f8e38	-0.05457899
80	0x3d7a6a25	0.061136384
81	0xbca09761	-0.019603433
82	0x3dab4ccd	0.08364258
83	0x3ca51e7d	0.02015614

fc3.weight f4 [10, 84]
0	0xbae03bd9	-0.001710768
1	0x3c647fde	0.013946502
2	0xbddbb6fa	-0.107282594
3	0x3c91cc44	0.017797597
4	0xbdb38360	-0.08765292
5	0x3dbe3f70	0.092894435
6	0xbd561841	-0.052269224
7	0xbd53ba72	-0.05169148
8	0x3e28aee8	0.16472971
9	0x3e5478c2	0.2074919
10	0x3def6d35	0.116907515
11	0xbdf72c23	-0.12068965
12	0x3d01fa1a	0.031732656
13	0x3d979c9e	0.07402919
14	0xbcdd8ca0	-0.027044594
15	0x3dd0d5e9	0.1019705
16	0xbbf20d53	-0.0073868423
17	0x3d7087f1	0.058723394
18	0xbe13abe2	-0.14421037
19	0xbd5db1bc	-0.05412458
20	0x3c87f7f0	0.016597718
21	0x3d24dc22	0.040248998
22	0x3dbb4144	0.09143308
23	0x3da87bb5	0.0822672
24	0x3e169120	0.14703798
25	0xbdbf98f4	-0.09355345
26	0xbde16300	-0.11005211
27	0x3da95b64	0.082693845
28	0x3cafeec9	0.021476166
29	0xbdd60617	-0.1045038
30	0xbda49c38	-0.08037609
31	0x3e109de6	0.14122733
32	0xbdbfad9e	-0.09359287
33	0xbd66c39d	-0.056338895
34	0x3d0db824	0.03459944
35	0x3dd20cff	0.10256385
36	0xbd252710	-0.040320456
37	0x3d002bcb	0.031291764
38	0xbb59a1e2	-0.0033208062
39	0xbd94672f	-0.07246243
40	0x3d3bb1da	0.04582391
41	0xbd2d99af	-0.042382892
42	0xbcd72ec3	-0.026267415
43	0xbd4715b2	-0.048604675
44	0x3e1fbd0c	0.1559946
45	0x3d2c7cec	0.042111322
46	0x3c86e2c6	0.016465556
47	0xbdb89a97	-0.09013861
48	0xbd02be90	-0.031920016
49	0x3de04edf	0.109525435
50	0x3d36c5f7	0.044622388
51	0x3c88d02d	0.016700828
52	0x3b2e9504	0.0026639113
53	0xbb9ead47	-0.0048424336
54	0xbe319bad	-0.17344542
55	0xbcc0f5e1	-0.023554744
56	0xbd8b161f	-0.06791329
57	0xbe02281d	-0.12710615
58	0xbe3746d3	-0.17898111
59	0x3d5799a4	0.052636757
60	0x3d45e4cc	0.0483139
61	0xbd187749	-0.037223134
62	0xbd1c3283	-0.03813411
63	0xbd04500b	-0.032302897
64	0xbdb5f011	-0.0888368
65	0xbbbd17be	-0.0057706526
66	0x3c3bcab4	0.011461902
67	0x3d7c0f3a	0.06153796
68	0xbe43abbf	-0.19108485
69	0xbc70ef3f	-0.014705478
70	0xbd8008cb	-0.06251677
71	0xbdc83c3e	-0.09777115
72	0x3d185021	0.037185792
73	0xbd36e9d0	-0.044656575
74	0xbc498979	-0.012300842
75	0xbc28cb1b	-0.01030233
76	0x3d84fa6e	0.06493078
77	0x3e5074a4	0.20356995
78	0xbd521ba1	-0.05129588
79	0x3d188d77	0.037244286
80	0x3e217c41	0.15770055
81	0x3e221263	0.15827326
82	0x3e4eb3ec	0.20185822
83	0x3d71ab62	0.059001334
84	0xbd902627	-0.07038527
85	0x3d8735eb	0.06602081
86	0xbc9db993	-0.019253528
87	0xbd27254d	-0.040807057
88	0x3e82b9b7	0.25532314
89	0xbe1737eb	-0.14767425
90	0x3e08cba4	0.13358933
91	0xbcce2f78	-0.02516912
92	0x3e013693	0.12618475
93	0xbd882be7	-0.06648999
94	0xbc922500	-0.017839909
95	0x3b94a87c	0.0045366865
96	0xbdda55c4	-0.1066089
97	0x3d3c56e0	0.045981288
98	0xbe7af26b	-0.24506538
99	0x3c29bebe	0.010360418
100	0xbe3225d8	-0.17397249
101	0x3e6915f0	0.22762275
102	0x3e438df2	0.19097117
103	0xbd5fd38e	-0.054645114
104	0xbe2b7be5	-0.16746481
105	0x3cd3e37d	0.02586531
106	0x3c107568	0.008817054
107	0xbe0aeb57	-0.13566338
108	0x3d5f6081	0.054535393
109	0xbe65d03c	-0.22442716
110	0x3e12e933	0.14346771
111	0xbcc01085	-0.023445377
112	0x3cfd9352	0.030954037
113	0xbd059fce	-0.032623105
114	0x3c77c758	0.015123211
115	0x3e606785	0.2191449
116	0x3bcb1dd9	0.0061986265
117	0x3de3c278	0.11121076
118	0x3e57219b	0.21008913
119	0xbd3e077e	-0.046393864
120	0x3db90100	0.09033394
121	0xbe32f8d9	-0.1747774
122	0xbd1a7eb9	-0.03771851
123	0x3ca79ab5	0.020459512
124	0xbdb2df9c	-0.08734056
125	0x3d32fb76	0.043696843
126	0xbde528b6	-0.111894056
127	0xbcbe40e6	-0.023224305
128	0x3d7cb705	0.06169798
129	0x3da6b036	0.08139078
130	0xbdc14bf4	-0.09438315
131	0x3d588dee	0.05286973
132	0x3e44522d	0.19171973
133	0x3dd0c8db	0.1019456
134	0xbe04d723	-0.12972693
135	0x3d2441fd	0.040101994
136	0xbd3fb9d8	-0.046808094
137	0xbe671c64	-0.22569424
138	0xbd80185e	-0.06254648
139	0xbdb123a2	-0.086493745
140	0xbe21f3fd	-0.1581573
141	0xbd853f41	-0.06506205
142	0x3a7c21ac	0.00096180546
143	0xbd653365	-0.055957217
144	0xbdc55348	-0.09635025
145	0xbdf5cb79	-0.120017
146	0xbc9c0758	-0.01904647
147	0xbdc953fd	-0.098304726
148	0xbd703655	-0.058645565
149	0x3d0fbbc2	0.03509117
150	0x3dc07919	0.093980975
151	0xbdf3285d	-0.11872933
152	0xbbebcc8e	-0.0071960157
153	0x3be31b91	0.0069307764
154	0x3d70e498	0.058811754
155	0xbe563836	-0.2091988
156	0x3d21387e	0.039360516
157	0x3d80844d	0.06275234
158	0xbe460f33	-0.19341736
159	0xbd73b73e	-0.059500925
160	0x3db02235	0.086002745
161	0xbcfd41c7	-0.030915154
162	0xbe236c08	-0.1595918
163	0x3e31036b	0.1728646
164	0x3cf7ee4d	0.030264998
165	0xbdf82e8e	-0.121182546
166	0x3c3cccdc	0.011523452
167	0xbd82c4ac	-0.063851684
168	0x3da92a4a	0.08260019
169	0xbb2444a4	-0.0025065327
170	0x3cb7d531	0.022440525
171	0xbd943ba4	-0.07237938
172	0x3cc69a23	0.02424342
173	0xbdf2719c	-0.118380755
174	0x3cb8de7b	0.022567024
175	0xbdee6ecd	-0.11642227
176	0x3e57e2cb	0.21082608
177	0x3e059c5c	0.13047928
178	0xbe1c2d0b	-0.15251558
179	0x3d6840dc	0.05670248
180	0x3d3ff9ae	0.046868972
181	0x3dcc41d1	0.09973491
182	0x3d9ec3e2	0.077522054
183	0x3d890ee7	0.066922955
184	0xbdffbbe1	-0.12487007
185	0x3bb0b112	0.005392202
186	0xbdd60c45	-0.10451559
187	0xbd3a794b	-0.04552583
188	0xbd786d66	-0.060651205
189	0xbdd2a013	-0.10284438
190	0x3da3df20	0.08001542
191	0x3d8be744	0.0683122
192	0xbd977b56	-0.07396571
193	0x3e204438	0.15651023
194	0xbe3e8601	-0.18605806
195	0xbdd89f52	-0.10577263
196	0xbc23f37d	-0.010006783
197	0x3dbe6052	0.092957154
198	0xbb3ee798	-0.002912974
199	0x3d339f0a	0.043852843
200	0x3e57e85e	0.21084735
201	0x3de64591	0.112437375
202	0xbe27fc1c	-0.16404766
203	0x3db6e22b	0.08929857
204	0x3d8def23	0.06930377
205	0x3c850b1e	0.016240653
206	0x3d9506b7	0.072766714
207	0x3b12d046	0.0022401973
208	0xbdb40d08	-0.08791548
209	0xbc79fb27	-0.015257633
210	0xbdc93293	-0.098240994
211	0xbd5cc94f	-0.05390292
212	0xbd5d8b31	-0.05408782
213	0xbe1fef1a	-0.15618554
214	0x3e0578d3	0.13034372
215	0x3dceee12	0.10104002
216	0xbb90c04c	-0.004417455
217	0x3b2857c8	0.0025687087
218	0x3cb04224	0.021515913
219	0xbdbf4dff	-0.093410484
220	0xbcaf10eb	-0.021370372
221	0x3c8f7722	0.017512862
222	0x3d42b4b6	0.04753562
223	0xbc0e2cb3	-0.008677649
224	0x3c8a2a91	0.016866
225	0x3d4e9f5a	0.05044494
226	0xbdaea867	-0.08528214
227	0x3e13abe9	0.14421047
228	0xbdf15187	-0.11783128
229	0x3e1b790d	0.15182896
230	0x3df471c9	0.11935765
231	0x3b274cb6	0.00255279
232	0xbde0c73e	-0.109755024
233	0x3d68d592	0.0568443
234	0x3e17d46a	0.14827123
235	0x3e2153b2	0.15754583
236	0x3e48970f	0.19588874
237	0xbd475780	-0.04866743
238	0x3c2564ed	0.010094863
239	0x3ccf4ea4	0.025306053
240	0xbdd731fe	-0.10507582
241	0xb9cd8900	-0.0003920272
242	0x3e09a2e5	0.13441046
243	0xbe0cc5eb	-0.13747375
244	0xbe57077d	-0.2099895
245	0xbd0292c2	-0.03187824
246	0x3de58bed	0.11208329
247	0x3ce94e25	0.028479645
248	0x3e24ea6c	0.1610505
249	0x3e0aa22a	0.13538423
250	0x3dfc6f84	0.123259574
251	0xbd7d2937	-0.061806884
252	0x3d90d0bb	0.07071062
253	0xbda3ecdd	-0.080041625
254	0x3e02a554	0.1275838
255	0xbcb0ba53	-0.021573221

fc3.bias f4 [10]
0	0x3c8e187e	0.017345663
1	0xbe85ddbf	-0.2614574
2	0x3e0e876c	0.13918847
3	0xbcdae30f	-0.026719598
4	0x3e37c724	0.1794706
5	0xbde02deb	-0.10946258
6	0x3e70c220	0.23511553
7	0xbe014d46	-0.12627134
8	0x3dc80e6e	0.09768377
9	0xbe8820f9	-0.26587656
